23_todoapp_senchola/.dart_tool/chrome-device/Default/optimization_guide_prediction_model_downloads/5598b46a-387e-467e-9283-4bc45a0c5aa7/model.tflite (tflite, 67216 bytes, 5 tensors)

dnn/hiddenlayer_1/bias/part_0 f4 [64]
00000000: 592d ec3d e381 a13c 8930 9bbb 0d16 5b3c
00000010: f579 013d 2559 8abc 5adc d93c 6c62 f03d
00000020: 708d 953d 3dd2 f23d beea aebc be91 acbc
00000030: 53af f3bc 2346 dabc a7b2 e13d 76f0 7abc
00000040: bfac 103d d83b e8bc 9336 88bc fb22 d8bc
00000050: 0357 35bd 5402 6cbc 5914 0a3d 5d3c 88bc
00000060: 9304 b9ba f5c8 1f3b 84fa d33d b3f1 a3bc
00000070: f8f5 573c 1094 0dbd eb21 8dbc 8bba c43d
00000080: 8ac2 8c3d ae6f 7fbc 1084 38bd e6e7 22bd
00000090: 4e13 563b d4b6 bcbb c9e0 43bd 27c0 d53d
000000a0: 7a30 25bc 4ffc 47bc c3ef ca3d ecf8 f4bc
000000b0: 33da d13c d43e 433c 374a 46bd c7ac 4bbd
000000c0: 96f5 903c d1c1 edbc bf85 eaba 440c cb3d
000000d0: 2fe9 86bd 7cf7 eabd ca8b 97bc 7aa9 2f3d
000000e0: 0dda 1cbd f5f9 ecba a76d 9c3b 7f4f 8dbd
000000f0: 8239 d03d 0bf4 43bd 79ea 5b3d 3e41 a539
0.11532087 0.019715255 -0.0047360105 0.013371957 0.031610448 -0.01688821 0.02659433 0.117375225
0.07302368 0.11856506 -0.021352168 -0.021065589 -0.029746687 -0.026644772 0.11020403 -0.015316119
0.035320994 -0.028348848 -0.016627586 -0.026383867 -0.044272434 -0.014404852 0.03371081 -0.016630346
-0.0014115743 0.0024381254 0.103505164 -0.020012712 0.013181202 -0.03456503 -0.017228087 0.09605893
0.06873043 -0.015590591 -0.04504782 -0.039771937 0.0032665315 -0.0057590995 -0.047821794 0.10437041
-0.0100823585 -0.012206151 0.09909012 -0.029903851 0.02561674 0.011916835 -0.04841062 -0.04972532
0.01769523 -0.029023083 -0.0017892643 0.09914449 -0.06587445 -0.11472985 -0.018499274 0.042886235
-0.038293887 -0.0018079864 0.0047738138 -0.06899928 0.10167219 -0.04784016 0.053690407 0.00031519862

dnn/hiddenlayer_0/bias/part_0 f4 [128]
00000000: 83e8 fdbc 0c6d 2bbd 59d9 3cbd 5519 5b3c
00000010: a89a 8ebc 5606 213c a130 05bd 4eaf 0c3d
00000020: 7bdb 0cbd 3822 64bd a414 3c3d ee66 fa3c
00000030: 2064 53bd 1b01 babd e82e 333d d783 283d
00000040: 0fde 4d3c 5f97 b53d 5fe4 64bc 6bec 81bd
00000050: 5851 36bd 9d10 21bb 61ec d43c b03c 20be
00000060: 447e 853d f210 3d3c f97e 6fbd 8594 823d
00000070: 3c46 ce3d 7dc5 b8bd 7f5d fb3c 2251 97ba
00000080: 34de 6fbd c3d6 173d b09f 9abd 9cc3 e3bc
00000090: 3634 30be fdf3 d53b eab9 b9bc ec91 78bc
000000a0: cdb8 8bbc 89bc 8f3c ce30 83bb 39f8 273c
000000b0: 891f 91bc b115 743d cec7 2b3d b508 6a3d
000000c0: b568 44ba bb01 06bd 78f8 76bc dc33 88bd
000000d0: 10ab 03be 5259 1f3c 2ad1 e8bd 753b 973c
000000e0: e4f9 30bd 0667 363c d59b f9bb 4a2f 083b
000000f0: 5a00 65bc 33e1 e83d 3913 b03d 7eb5 043d
00000100: 68bf 8c3d b8d1 233b 6181 293d 1e2d f4bc
00000110: bcb9 1cbd db76 85bd fbcf 82bd ae14 113e
00000120: 6fd8 5bbd c176 08bd af40 943d 5f22 95bd
00000130: aed9 4ebe 9fb4 1ebd e8d8 ee3b 6509 d03b
00000140: f3a4 e9bd 5f70 4ebd c79f a53d b6ab 713d
00000150: 304e 183d 7d80 d5bc a3fa fbbd fe93 453d
00000160: f130 82bd f73a 8d3a 5e8d 75bd 488a f63d
00000170: f47d 253c 2acc 95bc 62b2 2d3c ade8 2dbd
00000180: 1f8f a7bb 47e1 1c3d 3a66 cb3c cc48 a33c
00000190: a0d1 663d 75d1 b0bd 6dc1 db3d 6f03 143d
000001a0: 8fe1 2bbd 3717 9ebc 989b 4e3d 303c bebc
000001b0: 3405 b03d a24b 303c b63d 903a 38b9 2dbd
000001c0: d952 e4bb f426 1bbd 68be 99be bab6 c53d
000001d0: 1d8d 523d ba93 9b3c 400d acbd 8a46 f13d
000001e0: 68c2 8cbc 6eff 11bd 2b7e 6a3d 156e 553c
000001f0: f605 8ebc a0b6 99bd fc85 71bd 614b 56bd
-0.03099466 -0.041852042 -0.046105716 0.013372739 -0.01740773 0.009828171 -0.03251708 0.03434687
-0.034389 -0.055696696 0.045918122 0.030566659 -0.05160916 -0.09082242 0.043745905 0.041141357
0.01256515 0.08866762 -0.013970464 -0.06343921 -0.04451117 -0.0024576553 0.02599162 -0.1564815
0.06518224 0.011539685 -0.0584707 0.06375984 0.1007199 -0.09022043 0.03068423 -0.0011544565
-0.05856152 0.037070047 -0.07549989 -0.027803235 -0.17207417 0.00652933 -0.022671659 -0.015171509
-0.017055893 0.017545955 -0.0040036207 0.010252052 -0.017715232 0.059591 0.041938595 0.05713721
-0.0007492409 -0.032716494 -0.015073888 -0.066505164 -0.12858224 0.0097258855 -0.1136802 0.018460969
-0.043207064 0.011132961 -0.0076174536 0.002078014 -0.013977135 0.11371078 0.085974164 0.032399647
0.06872445 0.0024996828 0.04138315 -0.02980667 -0.038263068 -0.065168105 -0.063873254 0.14168045
-0.053673204 -0.033316378 0.072389 -0.072819464 -0.20200226 -0.038746472 0.007289041 0.006348776
-0.11408415 -0.050400134 0.08087116 0.059001647 0.03718394 -0.026062245 -0.123036645 0.04823684
-0.06356991 0.0010775019 -0.05994927 0.12038094 0.01010083 -0.01828583 0.010601612 -0.042458225
-0.005113497 0.03830078 0.024829019 0.019932173 0.056352258 -0.08633701 0.107302524 0.036136087
-0.041963156 -0.01929818 0.050441355 -0.023222059 0.085947424 0.01076022 0.0011004719 -0.042412966
-0.006967884 -0.037878945 -0.3002808 0.09653993 0.051404107 0.01899134 -0.08400965 0.117810324
-0.017182544 -0.035643987 0.05724923 0.013026734 -0.017336827 -0.07505536 -0.058965668 -0.05231798

dnn/hiddenlayer_0/MatMul f4 [128, 12]
00000000: 1ccd 75be 73cf d3bd 3839 273e df45 9dbc
00000010: d9d7 c43d 09b4 16bd 6876 753d 3861 fb3c
00000020: 1bbf ed3c c577 143d fb78 2f3e d6f7 1ebd
00000030: 6320 2cbe 83f2 f3bb b19b 38be b71c 68bd
00000040: 39ca da3d 9cf7 ae3d 9341 89be d404 75bd
00000050: 59aa c83c 17ec a93d 4443 7a3e 5f3d 1abe
00000060: 60cc 69bd 50c6 3abd 7abd 7abd 6bd3 283e
00000070: d163 f23d a709 3e3e d5e8 313e 7d02 c4bd
00000080: b5f6 203e 625a 383e 560d 2b3e 6039 843d
00000090: d35d 4e3d 247a 88bd e137 e1bd 0026 023e
000000a0: 3d96 19be 1df0 0ebe 64fe 5a3c a4d7 213c
000000b0: 9b00 0f3e c071 13bd 3e50 f1bd 3037 7f3c
000000c0: 287f 4f3d c9a7 12bd 090e 38be 0e65 483d
000000d0: 56ad 8fbd 2097 3b3d 773c 2f3d 15e0 8c3d
000000e0: 0c25 bd3d cfe4 42be 3f16 2bbe 82dd e53d
000000f0: a75e 963d 5b85 1a3e c27d cc3d 6d61 273e
00000100: 667b b6bd c6b7 2e3c a141 3a3d 57bf 32bd
00000110: fdbc 833d 2b8c de3d 247c 0c3e b28c f8bd
00000120: 9158 233e 6848 5b3e 3f18 5c3d a94f 553d
00000130: 7a86 e4bd 4db6 fbbd 0b52 37be 6f82 74bd
00000140: bd2f 383e 6131 93bd d85b 3cbe dd74 c8bd
00000150: 348b 9f3d 1b1c 353e 12e4 e63d d755 9e3d
00000160: b805 6abe 0ede 2dbe 6dad 9b3d ea7a 203e
00000170: c9cd 343e 6783 3b3c d674 ef3d 695a 9f3d
00000180: bd14 38be dfe9 5e3e 1c15 35bd a75f c53d
00000190: 7bf3 ecbd 0390 6ebe cbbc afbd 5b74 59be
000001a0: c255 96bd a405 f93c f201 91bd 51ec 09be
000001b0: b4ac 28be ea79 d4bd 77f9 a0bd 3330 043e
000001c0: 7e03 53be 0038 43be 87fd 323e e219 0bbc
000001d0: c9fa 253c d0c4 43bd aa57 68bd d50d cf3d
000001e0: 5610 023e e463 b9bd b887 19bd 8ea5 be3d
000001f0: abef 443d 0dc9 2b3d c04e 83bd be99 27be
00000200: 7a42 b9bd 6c41 2e3e a919 973e 6e16 47be
00000210: b1fb 483e d9ec 173e eae5 383e f918 f6bd
00000220: bf8d 613e 4b67 1dbc d5c1 113e f9af 55be
00000230: a394 0cbe 9179 3dbe 9400 663e 7853 e73d
00000240: f823 9e3d 27dc 39be fa06 113e 1213 033e
00000250: 0c45 353e 8a82 8d3c a595 27be 1007 bf3c
00000260: 0b2f 313d 321d 783d 93fb 35be 97d7 1e3d
00000270: 6384 2d3e 55ca 1a3e f94a 293e 58ed 083e
00000280: 41b9 0f3e b4c1 c5bc f882 88bc 2bc6 913b
00000290: f43b f83d 148d 9abd 3a00 20be 512a 683d
000002a0: 348f 82bd 1a5b 033e 8662 e4bd 5a7a 1a3e
000002b0: 2ecf 68bc 06a5 4e3e 8666 0fbd e7ae 2bbe
000002c0: 90f9 bcbd c542 f43d af61 533e 5fc1 773e
000002d0: a7b0 b23d c8e1 6fbe dab6 143e f4dd 24be
000002e0: a3a3 f4bc db38 3e3e 59cc 51be 9eb2 163d
000002f0: cb61 d03d 0c4d 10be 0f5c 22be 0766 d93d
00000300: 8a61 71bc f700 9ebd c6c0 5f3d e4ee 0c3c
00000310: e21d 4b3e 49b7 573c c49d 15be 8c9d 873d
00000320: 6fd0 3cbe a5b4 aebd 0b41 1e3d 9ae6 483e
00000330: 9736 93bc c390 5cbd 4cf0 853d d5de 1dbb
00000340: 07dc 073e 93c7 443e c33b 133e 7442 a7bc
00000350: 7086 9cbd 1e73 8e3e ee7b 8f3e 60d2 2b3a
00000360: 318d 9f3c e541 0abe 70be ddbd 62d0 e93d
00000370: f9f2 223e d1d9 c63d c4d6 3d3e 59fa 97bd
00000380: d9c8 563e 2a49 44be d0ba 97bd d348 0abe
00000390: 88d9 23be 2820 153e 524b 8e3c 3f94 71bd
000003a0: cc3f 4fbe b1c8 3ebe 5f0f 1f3e 1cc7 19be
000003b0: 8b36 b33d cd48 f13d e94c 5c3e 524c 2a3e
000003c0: 7077 803c 402f 7fbd 317d a0be 81c0 e4bd
000003d0: 54bb 37bd f755 36bc a0ea 27be 0bf8 0d3d
000003e0: 16a6 54bb e235 8b3e 75c0 1a3e 3d5f 1f3d
000003f0: 83cb 0f3e 0c7c 763d ecdf a2bc 08f6 783e
-0.24004024 -0.10342302 0.16330421 -0.019198356 0.09611482 -0.03679279 0.059927374 0.030686006
0.02902179 0.036247034 0.17135994 -0.038810574 -0.1680923 -0.007444681 -0.18028142 -0.05666801
0.10683102 0.085433215 -0.26807842 -0.059819058 0.02449529 0.08296984 0.24439722 -0.15062474
-0.057079673 -0.04559928 -0.061215855 0.164869 0.11835445 0.1855837 0.17373975 -0.09570787
0.15719111 0.18003228 0.16704306 0.06456256 0.050382446 -0.066639215 -0.10996986 0.12709808
-0.14998718 -0.13958783 0.0133663155 0.009878073 0.13965075 -0.035997152 -0.11782883 0.015577123
0.050658375 -0.035804544 -0.17974104 0.0489245 -0.07015483 0.04579842 0.042782273 0.06878678
0.09235582 -0.19032596 -0.16707705 0.1122389 0.07342272 0.15089934 0.09984924 0.16345759
-0.08910255 0.010663932 0.045472745 -0.043639507 0.06432531 0.10866579 0.13719231 -0.121362105
0.15951754 0.2141434 0.05373406 0.052077923 -0.11158462 -0.122906305 -0.1790239 -0.059694704
0.1798696 -0.07187153 -0.1839441 -0.09787915 0.07790223 0.17686503 0.1127397 0.077312164
-0.22853744 -0.16979238 0.07601438 0.15671888 0.17656626 0.011444903 0.116922066 0.07780916
-0.17976661 0.21768902 -0.044209585 0.09637385 -0.11569878 -0.23297124 -0.08580931 -0.21235792
-0.07340576 0.030398197 -0.07080449 -0.13469054 -0.16472131 -0.10374816 -0.07860082 0.12909012
-0.20606801 -0.19064331 0.17479526 -0.008490058 0.010130593 -0.047795117 -0.056724228 0.1011006
0.12701544 -0.09052256 -0.037482947 0.09308921 0.048080128 0.041939784 -0.06411505 -0.16367242
-0.090458825 0.17017144 0.29511765 -0.1944215 0.19627263 0.14836444 0.18056455 -0.12016482
0.22026728 -0.0096071465 0.14234097 -0.2086791 -0.13728575 -0.18503405 0.22461158 0.11295217
0.07721704 -0.18150388 0.14162818 0.12800243 0.1770212 0.01727416 -0.16365679 0.023318797
0.043257754 0.060574718 -0.17771749 0.03877982 0.16945033 0.15116246 0.16532506 0.1337179
0.14035513 -0.024140216 -0.016664013 0.0044486723 0.1212081 -0.0754644 -0.15625086 0.05668098
-0.0637497 0.12827721 -0.11151604 0.15085736 -0.014209552 0.20180139 -0.035009883 -0.16765939
-0.09227288 0.11926798 0.20642732 0.24194859 0.087251 -0.23425972 0.14522877 -0.16100293
-0.029863184 0.18576376 -0.20488109 0.036791436 0.101749025 -0.14091891 -0.1585543 0.10615163
-0.014732728 -0.07715028 0.054627202 0.008601878 0.19835618 0.013166257 -0.14610964 0.066218466
-0.18438886 -0.08530549 0.03863625 0.19619218 -0.017970366 -0.053848993 0.065399736 -0.0024089117
0.13267528 0.19216757 0.14378266 -0.02041743 -0.076428294 0.27822202 0.28024238 0.00065544806
0.019476505 -0.135017 -0.10827339 0.11416699 0.15912999 0.09709514 0.18538958 -0.07420797
0.20975055 -0.19168535 -0.074086785 -0.13504343 -0.1600095 0.14563048 0.0173699 -0.05897927
-0.2023918 -0.18631245 0.15533207 -0.1501736 0.087506376 0.11781464 0.21513714 0.16630676
0.015681952 -0.06230092 -0.31345513 -0.1116953 -0.044856384 -0.011128894 -0.16398096 0.03466038
-0.0032447628 0.27189547 0.15112479 0.038909186 0.14042477 0.060176894 -0.019882165 0.24312603

dnn/hiddenlayer_1/MatMul f4 [64, 128]
00000000: 9989 59bd 636e 213e 3dae 52bd 0292 303e
00000010: e4f2 26bd 42d4 973d c215 053e e94b a43d
00000020: 4eca 18be 844d dc3d 233b 263e dc04 88bd
00000030: fe07 a3bc 092a cb3d 7343 603e 074a 173d
00000040: 9cc4 11be 9c3c 0c3d 3394 a63b 9dbb 25be
00000050: 068d 1f3d adb5 a33d c0dd 1a3e 3075 193e
00000060: 88a5 e23d 9f9d 92bd 5137 22be e978 a4bd
00000070: befa 86bd 1c0c d1bd 927c 0fbd 3dfd aa3c
00000080: 1e85 123e fd83 983d bcbf 553d 82a0 d83c
00000090: 16d6 f93b 89fe 8bbd 52b2 d8bd d0bd 24bd
000000a0: dbbd 9cbb c2b7 f53d 87cd f53d ffa0 443d
000000b0: 3a08 723d d6f2 673d 64f7 d33d 5d65 1b3e
000000c0: cdb8 b33d c526 f2bd 420d 953c f592 423e
000000d0: 5d02 fe3d 4bcd 263e dd59 5dbd ec26 983c
000000e0: 519b 843a 5c17 8cbd 3f9c bf3d 3074 e53a
000000f0: 1c0b 7dbd 2a1f 2e3e 4ffc eb3c 0612 003e
00000100: f630 c6bd 354f cebd 6235 e13d d8e5 eebd
00000110: 21ae eabd dc07 dc3d 9607 77ba c5ff 3e3e
00000120: 9a0d e5bd cae2 abbd be25 0c3e 74e6 173e
00000130: b79b 9a3d b35f 2cbd 7ee0 163e 683a b1bc
00000140: f602 163e 7dff f33d 0367 d0bd c412 233c
00000150: 0e9d 333e 4848 ae3c e288 173d 7060 e13c
00000160: b036 9d3c 8f15 25bd 635a 573d 1958 2d3e
00000170: 4b6f b2bd 5c25 013e 316c 0e3d a81a 0abe
00000180: 446f c9bd 3a2b 1dbd 6a5d 343e 7e7c 2f3e
00000190: ec81 c3bc 41bf f83c 5573 13be 35cc 173e
000001a0: c76b 2cbd 577f 513d 44a7 a53d 5f51 603d
000001b0: fe72 2e3e 9e3b 7f3d bed8 fb3c 2ab5 e6bd
000001c0: 960a 5bbd 91fb 7a3c 6e48 ee3d 68e6 c0bd
000001d0: aed9 dbbd ad4c fcbd ca5e 693d c067 09be
000001e0: c3f6 293e cf45 ec3d 4768 c9bd a3a9 393c
000001f0: 28f6 19be 2dc0 5c3e 635e 193e bf63 aabc
00000200: 4e10 04be 3989 9abd 09fd de3d 2621 3dbc
00000210: 2ad8 343c 9ece 3a3e 7c7e 0e3b 4b0a 213e
00000220: 2198 01be 949d b6bd cf40 8bbd 922d e73c
00000230: 9d8d 3ebe 9e85 4dbd d8e8 5dbd 81d0 fd3d
00000240: 2577 013c 7994 b43c 0da6 08bd b3f4 99bd
00000250: 52ec c9bd 06ba 0dbe 9572 19bd 6bf4 22be
00000260: f843 0d3e 3f65 113e 8270 e3bd 31bf e1bc
00000270: 2826 e13d 58f4 453c 773b b7bd 8156 e13d
00000280: fe8e 49bd bf66 253e a00a ba3d 17d1 1e3d
00000290: f0bb ac3d 3682 b53d 5e54 96bb e7a0 bebc
000002a0: 6554 07be 6eca 8fbd 5443 90bd 0456 0f3e
000002b0: a94c adbd 1682 0b3e 0fd4 0fbc 1f76 87bd
000002c0: ab3a 6fbd d2df 25be 59d4 0bbe cbe7 c7bb
000002d0: 060d a2bd bb39 c33d b376 b53d 116e 26be
000002e0: 4c20 90bc 2385 8bbd 8824 03be 6acf 87bd
000002f0: 781b 25be 1fd5 3dbc dba9 493d 8e47 da3d
00000300: 461e 0f3d c691 3b3e 4fe1 723d 1532 23be
00000310: ba5a adbd 3e12 233e 0b98 b4bd d7d8 3f3c
00000320: be36 c5bb ca55 1bbe ac32 ce3d 1329 1cbd
00000330: e700 ca3c 0c6f 70bc 0bf7 533c d964 1ebe
00000340: 32f0 2dbe 2bfc 943d bdc1 31bd 8f87 c9bd
00000350: 097f 133e 47ae ec3c 3422 c2bd f4c3 a2bd
00000360: 0028 85bd 7669 1cbe 3a9d 49bd 2dac 9f3d
00000370: c867 12be b7e1 e4bb 544a babd 6a6c a4bc
00000380: 0938 5a3d 7445 57bc 0e46 13be 82fa 113e
00000390: ede4 82bd 0d84 60bb b64e c4bd cd3e b3bd
000003a0: e1d6 fabc 320f 9d3d eb9e 903c ecf4 b73d
000003b0: 75cd 8bbc 9935 7f3d 9315 33be 02fd 0dbe
000003c0: a138 9d38 6b3c ecbd cacf 9ebc d636 0eba
000003d0: d28e cdbd efe2 78bc 6107 9c3d ee15 f7bd
000003e0: 6fb5 f8bd d03c 863d d40a cfbd 409d 6abd
000003f0: 0c26 c3bd 967c e3bd 9e2e 63bc 681b 423d
-0.05310974 0.15764765 -0.051435698 0.17243198 -0.040758982 0.07413532 0.12996581 0.08022291
-0.14920923 0.107569724 0.16233496 -0.06641552 -0.019901272 0.09920127 0.2190073 0.036935832
-0.14235157 0.03423749 0.0050835847 -0.1618485 0.03895285 0.07993636 0.15123653 0.1498611
0.11066729 -0.0715897 -0.15841414 -0.08030874 -0.06590794 -0.10207388 -0.03503091 0.020872707
0.14308593 0.0744705 0.052184805 0.026443724 0.007624398 -0.06835658 -0.10580887 -0.04022008
-0.0047833747 0.1199794 0.12002092 0.0480051 0.059089877 0.05662807 0.103499204 0.15175386
0.08775482 -0.11823801 0.018194798 0.19001372 0.124027945 0.1628925 -0.05404078 0.018573247
0.0010117089 -0.06840393 0.093559735 0.001750594 -0.061778173 0.17004076 0.028806834 0.12506875
-0.09677307 -0.10073701 0.1099651 -0.11664933 -0.11458994 0.107436866 -0.00094234326 0.18652256
-0.11184235 -0.08392866 0.13686273 0.14834005 0.075492315 -0.042083453 0.14734074 -0.021634296
0.14649567 0.11913965 -0.10175898 0.009953205 0.1754038 0.0212747 0.036995776 0.027511805
0.019191116 -0.040303763 0.052576434 0.16928138 -0.08712634 0.12611908 0.034771148 -0.13486731
-0.09835675 -0.038371302 0.1761376 0.17137334 -0.023865663 0.030364634 -0.14399464 0.14823993
-0.042094972 0.05114683 0.08088544 0.0547651 0.17036054 0.062312715 0.030743 -0.11265023
-0.053476892 0.015318767 0.116349086 -0.094189465 -0.107348785 -0.12319312 0.056975164 -0.13418484
0.16598038 0.115367524 -0.098343424 0.011331948 -0.15035307 0.21557684 0.14977412 -0.020799516
-0.12896845 -0.075457044 0.108881064 -0.011543548 0.011037866 0.1824288 0.002174287 0.15726583
-0.12655689 -0.089167744 -0.06799471 0.028219972 -0.18608709 -0.050176255 -0.054177135 0.123932846
0.007901941 0.022043454 -0.033361483 -0.07517376 -0.09859528 -0.13840494 -0.03746279 -0.1591355
0.1379546 0.14198779 -0.111054435 -0.027556987 0.10993606 0.012082182 -0.08946889 0.110028274
-0.049208634 0.16152476 0.09084058 0.038773622 0.08434284 0.088627264 -0.004587694 -0.023270084
-0.13215788 -0.07021032 -0.07044092 0.13997656 -0.084618874 0.13623843 -0.008778586 -0.06614327
-0.05840556 -0.16198662 -0.13655223 -0.00610063 -0.0791264 0.095324956 0.08860531 -0.16252925
-0.017593525 -0.06812503 -0.12806904 -0.06631358 -0.1612376 -0.011586457 0.049234252 0.10658179
0.03494098 0.18317327 0.059296902 -0.15937074 -0.0846457 0.15924928 -0.088180624 0.0117094135
-0.0060184887 -0.15169445 0.10068259 -0.03812511 0.024658633 -0.014674913 0.012937318 -0.15468158
-0.16986158 0.0727466 -0.043397654 -0.09840309 0.14403929 0.028891696 -0.0947918 -0.07947531
-0.0650177 -0.15274605 -0.04922221 0.07796512 -0.14297402 -0.006984915 -0.09096208 -0.020071227
0.053276096 -0.0131391175 -0.14382192 0.14255717 -0.063913204 -0.0034258396 -0.095853254 -0.08752213
-0.03062004 0.07668914 0.017653903 0.08982262 -0.017065743 0.062306974 -0.17488699 -0.13866046
7.496891e-05 -0.11534961 -0.01938619 -0.00054250413 -0.100370064 -0.015190824 0.07618595 -0.1206473
-0.12143981 0.06554568 -0.10109487 -0.05727887 -0.09528741 -0.11107747 -0.013866095 0.047389418

dnn/logits/MatMul f4 [1, 64]
00000000: 347c 9d3e ef27 c43d 2aac 9cbe bf4a 4c3e
00000010: 15e6 f93d b578 6fbd a934 4a3e 498c 933e
00000020: b59d d43d 7e16 e43e f6b6 90be 19d7 933e
00000030: a824 5ebc 1ed0 a9be e9dd 8a3e 67ad 9bbd
00000040: e187 f53d 1dbe cc3b f8ce 7dbd 8978 dfbe
00000050: a7b2 9abe 86a9 2dbc 27ed 743e 4510 c4bd
00000060: 3df1 65be 2f3d d83e 488a b53e 0478 8dbe
00000070: 4de9 9abe 293b d8bd 4669 8cbe 26aa 783e
00000080: 142f a33e edc2 df3d d781 61be 4154 38be
00000090: 74e1 a13d 6274 1e3d 14d8 74be 3d8f aa3e
000000a0: 4ded 663e 4066 99be 7535 b43e 3934 b53c
000000b0: 6038 843e 3d9f 7abe 294f 21be 8087 59be
000000c0: 10b3 6b3d 3d63 90bd cdd2 85ba 2909 503e
000000d0: d8c2 d73e 6f75 e3be dd42 523d 0a14 733e
000000e0: 994b 92be c50c fe3d fbf3 90be f350 91be
000000f0: 3535 883e 645e 5ebe c1a4 3b3e f75b a5bc
0.30758822 0.09577929 -0.306001 0.19950388 0.12202088 -0.058464725 0.19746651 0.28817967
0.10381643 0.4454841 -0.28264588 0.28875044 -0.013558544 -0.33166593 0.2712243 -0.07601433
0.119888075 0.006248249 -0.06196496 -0.4364665 -0.30214426 -0.0105995 0.23918591 -0.09573416
-0.22455306 0.4223418 0.35457063 -0.27630627 -0.3025612 -0.10558159 -0.27424067 0.24283656
0.31871855 0.10925851 -0.22022186 -0.1800089 0.0790433 0.03868521 -0.23910552 0.33312407
0.2255146 -0.29960823 0.35197034 0.022119628 0.2582426 -0.24474807 -0.15752853 -0.21243095
0.057543814 -0.07050178 -0.0010209918 0.20315994 0.4214084 -0.44425532 0.051333297 0.23738113
-0.285733 0.12404779 -0.28311142 -0.28382072 0.26603094 -0.21715695 0.18324567 -0.020185454
